Model: "model_1"
__________________________________________________________________________________________________
Layer (type)                    Output Shape         Param #     Connected to                     
==================================================================================================
input_1 (InputLayer)            (None, 256, 256, 3)  0                                            
__________________________________________________________________________________________________
conv2d_1 (Conv2D)               (None, 256, 256, 64) 1792        input_1[0][0]                    
__________________________________________________________________________________________________
batch_normalization_1 (BatchNor (None, 256, 256, 64) 256         conv2d_1[0][0]                   
__________________________________________________________________________________________________
re_lu_1 (ReLU)                  (None, 256, 256, 64) 0           batch_normalization_1[0][0]      
__________________________________________________________________________________________________
conv2d_2 (Conv2D)               (None, 256, 256, 64) 36928       re_lu_1[0][0]                    
__________________________________________________________________________________________________
batch_normalization_2 (BatchNor (None, 256, 256, 64) 256         conv2d_2[0][0]                   
__________________________________________________________________________________________________
re_lu_2 (ReLU)                  (None, 256, 256, 64) 0           batch_normalization_2[0][0]      
__________________________________________________________________________________________________
conv2d_3 (Conv2D)               (None, 256, 256, 64) 36928       re_lu_2[0][0]                    
__________________________________________________________________________________________________
batch_normalization_3 (BatchNor (None, 256, 256, 64) 256         conv2d_3[0][0]                   
__________________________________________________________________________________________________
add_1 (Add)                     (None, 256, 256, 64) 0           batch_normalization_3[0][0]      
                                                                 re_lu_1[0][0]                    
__________________________________________________________________________________________________
re_lu_3 (ReLU)                  (None, 256, 256, 64) 0           add_1[0][0]                      
__________________________________________________________________________________________________
conv2d_4 (Conv2D)               (None, 256, 256, 64) 36928       re_lu_3[0][0]                    
__________________________________________________________________________________________________
batch_normalization_4 (BatchNor (None, 256, 256, 64) 256         conv2d_4[0][0]                   
__________________________________________________________________________________________________
re_lu_4 (ReLU)                  (None, 256, 256, 64) 0           batch_normalization_4[0][0]      
__________________________________________________________________________________________________
conv2d_5 (Conv2D)               (None, 256, 256, 64) 36928       re_lu_4[0][0]                    
__________________________________________________________________________________________________
batch_normalization_5 (BatchNor (None, 256, 256, 64) 256         conv2d_5[0][0]                   
__________________________________________________________________________________________________
add_2 (Add)                     (None, 256, 256, 64) 0           batch_normalization_5[0][0]      
                                                                 re_lu_3[0][0]                    
__________________________________________________________________________________________________
re_lu_5 (ReLU)                  (None, 256, 256, 64) 0           add_2[0][0]                      
__________________________________________________________________________________________________
conv2d_6 (Conv2D)               (None, 256, 256, 64) 36928       re_lu_5[0][0]                    
__________________________________________________________________________________________________
batch_normalization_6 (BatchNor (None, 256, 256, 64) 256         conv2d_6[0][0]                   
__________________________________________________________________________________________________
re_lu_6 (ReLU)                  (None, 256, 256, 64) 0           batch_normalization_6[0][0]      
__________________________________________________________________________________________________
conv2d_7 (Conv2D)               (None, 256, 256, 64) 36928       re_lu_6[0][0]                    
__________________________________________________________________________________________________
batch_normalization_7 (BatchNor (None, 256, 256, 64) 256         conv2d_7[0][0]                   
__________________________________________________________________________________________________
add_3 (Add)                     (None, 256, 256, 64) 0           batch_normalization_7[0][0]      
                                                                 re_lu_5[0][0]                    
__________________________________________________________________________________________________
re_lu_7 (ReLU)                  (None, 256, 256, 64) 0           add_3[0][0]                      
__________________________________________________________________________________________________
conv2d_8 (Conv2D)               (None, 128, 128, 128 73856       re_lu_7[0][0]                    
__________________________________________________________________________________________________
batch_normalization_8 (BatchNor (None, 128, 128, 128 512         conv2d_8[0][0]                   
…
__________________________________________________________________________________________________
add_7 (Add)                     (None, 128, 128, 128 0           batch_normalization_15[0][0]     
                                                                 re_lu_13[0][0]                   
__________________________________________________________________________________________________
re_lu_15 (ReLU)                 (None, 128, 128, 128 0           add_7[0][0]                      
__________________________________________________________________________________________________
conv2d_17 (Conv2D)              (None, 64, 64, 256)  295168      re_lu_15[0][0]                   
__________________________________________________________________________________________________
batch_normalization_16 (BatchNo (None, 64, 64, 256)  1024        conv2d_17[0][0]                  
__________________________________________________________________________________________________
re_lu_16 (ReLU)                 (None, 64, 64, 256)  0           batch_normalization_16[0][0]     
__________________________________________________________________________________________________
conv2d_18 (Conv2D)              (None, 64, 64, 256)  590080      re_lu_16[0][0]                   
__________________________________________________________________________________________________
batch_normalization_17 (BatchNo (None, 64, 64, 256)  1024        conv2d_18[0][0]                  
__________________________________________________________________________________________________
conv2d_19 (Conv2D)              (None, 64, 64, 256)  295168      re_lu_15[0][0]                   
__________________________________________________________________________________________________
add_8 (Add)                     (None, 64, 64, 256)  0           batch_normalization_17[0][0]     
                                                                 conv2d_19[0][0]                  
__________________________________________________________________________________________________
re_lu_17 (ReLU)                 (None, 64, 64, 256)  0           add_8[0][0]                      
__________________________________________________________________________________________________
conv2d_20 (Conv2D)              (None, 64, 64, 256)  590080      re_lu_17[0][0]                   
__________________________________________________________________________________________________
batch_normalization_18 (BatchNo (None, 64, 64, 256)  1024        conv2d_20[0][0]                  
__________________________________________________________________________________________________
re_lu_18 (ReLU)                 (None, 64, 64, 256)  0           batch_normalization_18[0][0]     
__________________________________________________________________________________________________
conv2d_21 (Conv2D)              (None, 64, 64, 256)  590080      re_lu_18[0][0]                   
__________________________________________________________________________________________________
batch_normalization_19 (BatchNo (None, 64, 64, 256)  1024        conv2d_21[0][0]                  
__________________________________________________________________________________________________
add_9 (Add)                     (None, 64, 64, 256)  0           batch_normalization_19[0][0]     
                                                                 re_lu_17[0][0]                   
__________________________________________________________________________________________________
re_lu_19 (ReLU)                 (None, 64, 64, 256)  0           add_9[0][0]                      
__________________________________________________________________________________________________
conv2d_22 (Conv2D)              (None, 64, 64, 256)  590080      re_lu_19[0][0]                   
__________________________________________________________________________________________________
batch_normalization_20 (BatchNo (None, 64, 64, 256)  1024        conv2d_22[0][0]                  
__________________________________________________________________________________________________
re_lu_20 (ReLU)                 (None, 64, 64, 256)  0           batch_normalization_20[0][0]     
__________________________________________________________________________________________________
conv2d_23 (Conv2D)              (None, 64, 64, 256)  590080      re_lu_20[0][0]                   
__________________________________________________________________________________________________
batch_normalization_21 (BatchNo (None, 64, 64, 256)  1024        conv2d_23[0][0]                  
__________________________________________________________________________________________________
add_10 (Add)                    (None, 64, 64, 256)  0           batch_normalization_21[0][0]     
                                                                 re_lu_19[0][0]                   
__________________________________________________________________________________________________
re_lu_21 (ReLU)                 (None, 64, 64, 256)  0           add_10[0][0]                     
__________________________________________________________________________________________________
conv2d_24 (Conv2D)              (None, 64, 64, 256)  590080      re_lu_21[0][0]                   
__________________________________________________________________________________________________
batch_normalization_22 (BatchNo (None, 64, 64, 256)  1024        conv2d_24[0][0]                  
__________________________________________________________________________________________________
re_lu_22 (ReLU)                 (None, 64, 64, 256)  0           batch_normalization_22[0][0]     
__________________________________________________________________________________________________
conv2d_25 (Conv2D)              (None, 64, 64, 256)  590080      re_lu_22[0][0]                   
__________________________________________________________________________________________________
batch_normalization_23 (BatchNo (None, 64, 64, 256)  1024        conv2d_25[0][0]                  
__________________________________________________________________________________________________
add_11 (Add)                    (None, 64, 64, 256)  0           batch_normalization_23[0][0]     
                                                                 re_lu_21[0][0]                   
__________________________________________________________________________________________________
re_lu_23 (ReLU)                 (None, 64, 64, 256)  0           add_11[0][0]                     
__________________________________________________________________________________________________
conv2d_26 (Conv2D)              (None, 64, 64, 256)  590080      re_lu_23[0][0]                   
__________________________________________________________________________________________________
batch_normalization_24 (BatchNo (None, 64, 64, 256)  1024        conv2d_26[0][0]                  
__________________________________________________________________________________________________
re_lu_24 (ReLU)                 (None, 64, 64, 256)  0           batch_normalization_24[0][0]     
__________________________________________________________________________________________________
conv2d_27 (Conv2D)              (None, 64, 64, 256)  590080      re_lu_24[0][0]                   
__________________________________________________________________________________________________
batch_normalization_25 (BatchNo (None, 64, 64, 256)  1024        conv2d_27[0][0]                  
__________________________________________________________________________________________________
add_12 (Add)                    (None, 64, 64, 256)  0           batch_normalization_25[0][0]     
                                                                 re_lu_23[0][0]                   
__________________________________________________________________________________________________
re_lu_25 (ReLU)                 (None, 64, 64, 256)  0           add_12[0][0]                     
__________________________________________________________________________________________________
conv2d_28 (Conv2D)              (None, 64, 64, 256)  590080      re_lu_25[0][0]                   
__________________________________________________________________________________________________
batch_normalization_26 (BatchNo (None, 64, 64, 256)  1024        conv2d_28[0][0]                  
__________________________________________________________________________________________________
re_lu_26 (ReLU)                 (None, 64, 64, 256)  0           batch_normalization_26[0][0]     
__________________________________________________________________________________________________
conv2d_29 (Conv2D)              (None, 64, 64, 256)  590080      re_lu_26[0][0]                   
__________________________________________________________________________________________________
batch_normalization_27 (BatchNo (None, 64, 64, 256)  1024        conv2d_29[0][0]                  
__________________________________________________________________________________________________
add_13 (Add)                    (None, 64, 64, 256)  0           batch_normalization_27[0][0]     
                                                                 re_lu_25[0][0]                   
__________________________________________________________________________________________________
re_lu_27 (ReLU)                 (None, 64, 64, 256)  0           add_13[0][0]                     
__________________________________________________________________________________________________
conv2d_30 (Conv2D)              (None, 32, 32, 512)  1180160     re_lu_27[0][0]                   
__________________________________________________________________________________________________
batch_normalization_28 (BatchNo (None, 32, 32, 512)  2048        conv2d_30[0][0]                  
__________________________________________________________________________________________________
re_lu_28 (ReLU)                 (None, 32, 32, 512)  0           batch_normalization_28[0][0]     
__________________________________________________________________________________________________
conv2d_31 (Conv2D)              (None, 32, 32, 512)  2359808     re_lu_28[0][0]                   
__________________________________________________________________________________________________
batch_normalization_29 (BatchNo (None, 32, 32, 512)  2048        conv2d_31[0][0]                  
__________________________________________________________________________________________________
conv2d_32 (Conv2D)              (None, 32, 32, 512)  1180160     re_lu_27[0][0]                   
__________________________________________________________________________________________________
add_14 (Add)                    (None, 32, 32, 512)  0           batch_normalization_29[0][0]     
                                                                 conv2d_32[0][0]                  
__________________________________________________________________________________________________
re_lu_29 (ReLU)                 (None, 32, 32, 512)  0           add_14[0][0]                     
__________________________________________________________________________________________________
conv2d_33 (Conv2D)              (None, 32, 32, 512)  2359808     re_lu_29[0][0]                   
__________________________________________________________________________________________________
batch_normalization_30 (BatchNo (None, 32, 32, 512)  2048        conv2d_33[0][0]                  
__________________________________________________________________________________________________
re_lu_30 (ReLU)                 (None, 32, 32, 512)  0           batch_normalization_30[0][0]     
__________________________________________________________________________________________________
conv2d_34 (Conv2D)              (None, 32, 32, 512)  2359808     re_lu_30[0][0]                   
__________________________________________________________________________________________________
batch_normalization_31 (BatchNo (None, 32, 32, 512)  2048        conv2d_34[0][0]                  
__________________________________________________________________________________________________
add_15 (Add)                    (None, 32, 32, 512)  0           batch_normalization_31[0][0]     
                                                                 re_lu_29[0][0]                   
__________________________________________________________________________________________________
re_lu_31 (ReLU)                 (None, 32, 32, 512)  0           add_15[0][0]                     
__________________________________________________________________________________________________
conv2d_35 (Conv2D)              (None, 32, 32, 512)  2359808     re_lu_31[0][0]                   
__________________________________________________________________________________________________
batch_normalization_32 (BatchNo (None, 32, 32, 512)  2048        conv2d_35[0][0]                  
__________________________________________________________________________________________________
re_lu_32 (ReLU)                 (None, 32, 32, 512)  0           batch_normalization_32[0][0]     
__________________________________________________________________________________________________
conv2d_36 (Conv2D)              (None, 32, 32, 512)  2359808     re_lu_32[0][0]                   
__________________________________________________________________________________________________
batch_normalization_33 (BatchNo (None, 32, 32, 512)  2048        conv2d_36[0][0]                  
__________________________________________________________________________________________________
add_16 (Add)                    (None, 32, 32, 512)  0           batch_normalization_33[0][0]     
                                                                 re_lu_31[0][0]                   
__________________________________________________________________________________________________
re_lu_33 (ReLU)                 (None, 32, 32, 512)  0           add_16[0][0]                     
__________________________________________________________________________________________________
max_pooling2d_1 (MaxPooling2D)  (None, 16, 16, 512)  0           re_lu_33[0][0]                   
__________________________________________________________________________________________________
conv2d_37 (Conv2D)              (None, 16, 16, 512)  2359808     max_pooling2d_1[0][0]            
__________________________________________________________________________________________________
batch_normalization_34 (BatchNo (None, 16, 16, 512)  2048        conv2d_37[0][0]                  
__________________________________________________________________________________________________
re_lu_34 (ReLU)                 (None, 16, 16, 512)  0           batch_normalization_34[0][0]     
__________________________________________________________________________________________________
conv2d_38 (Conv2D)              (None, 16, 16, 512)  2359808     re_lu_34[0][0]                   
__________________________________________________________________________________________________
batch_normalization_35 (BatchNo (None, 16, 16, 512)  2048        conv2d_38[0][0]                  
__________________________________________________________________________________________________
add_17 (Add)                    (None, 16, 16, 512)  0           batch_normalization_35[0][0]     
                                                                 max_pooling2d_1[0][0]            
__________________________________________________________________________________________________
re_lu_35 (ReLU)                 (None, 16, 16, 512)  0           add_17[0][0]                     
__________________________________________________________________________________________________
conv2d_39 (Conv2D)              (None, 16, 16, 512)  2359808     re_lu_35[0][0]                   
__________________________________________________________________________________________________
batch_normalization_36 (BatchNo (None, 16, 16, 512)  2048        conv2d_39[0][0]                  
__________________________________________________________________________________________________
re_lu_36 (ReLU)                 (None, 16, 16, 512)  0           batch_normalization_36[0][0]     
__________________________________________________________________________________________________
conv2d_40 (Conv2D)              (None, 16, 16, 512)  2359808     re_lu_36[0][0]                   
__________________________________________________________________________________________________
batch_normalization_37 (BatchNo (None, 16, 16, 512)  2048        conv2d_40[0][0]                  
__________________________________________________________________________________________________
add_18 (Add)                    (None, 16, 16, 512)  0           batch_normalization_37[0][0]     
                                                                 re_lu_35[0][0]                   
__________________________________________________________________________________________________
re_lu_37 (ReLU)                 (None, 16, 16, 512)  0           add_18[0][0]                     
__________________________________________________________________________________________________
conv2d_41 (Conv2D)              (None, 16, 16, 512)  2359808     re_lu_37[0][0]                   
__________________________________________________________________________________________________
batch_normalization_38 (BatchNo (None, 16, 16, 512)  2048        conv2d_41[0][0]                  
__________________________________________________________________________________________________
re_lu_38 (ReLU)                 (None, 16, 16, 512)  0           batch_normalization_38[0][0]     
__________________________________________________________________________________________________
conv2d_42 (Conv2D)              (None, 16, 16, 512)  2359808     re_lu_38[0][0]                   
__________________________________________________________________________________________________
batch_normalization_39 (BatchNo (None, 16, 16, 512)  2048        conv2d_42[0][0]                  
__________________________________________________________________________________________________
add_19 (Add)                    (None, 16, 16, 512)  0           batch_normalization_39[0][0]     
                                                                 re_lu_37[0][0]                   
__________________________________________________________________________________________________
re_lu_39 (ReLU)                 (None, 16, 16, 512)  0           add_19[0][0]                     
__________________________________________________________________________________________________
max_pooling2d_2 (MaxPooling2D)  (None, 8, 8, 512)    0           re_lu_39[0][0]                   
__________________________________________________________________________________________________
conv2d_43 (Conv2D)              (None, 8, 8, 512)    2359808     max_pooling2d_2[0][0]            
__________________________________________________________________________________________________
batch_normalization_40 (BatchNo (None, 8, 8, 512)    2048        conv2d_43[0][0]                  
__________________________________________________________________________________________________
re_lu_40 (ReLU)                 (None, 8, 8, 512)    0           batch_normalization_40[0][0]     
__________________________________________________________________________________________________
conv2d_44 (Conv2D)              (None, 8, 8, 512)    2359808     re_lu_40[0][0]                   
__________________________________________________________________________________________________
batch_normalization_41 (BatchNo (None, 8, 8, 512)    2048        conv2d_44[0][0]                  
__________________________________________________________________________________________________
add_20 (Add)                    (None, 8, 8, 512)    0           batch_normalization_41[0][0]     
                                                                 max_pooling2d_2[0][0]            
__________________________________________________________________________________________________
re_lu_41 (ReLU)                 (None, 8, 8, 512)    0           add_20[0][0]                     
__________________________________________________________________________________________________
conv2d_45 (Conv2D)              (None, 8, 8, 512)    2359808     re_lu_41[0][0]                   
__________________________________________________________________________________________________
batch_normalization_42 (BatchNo (None, 8, 8, 512)    2048        conv2d_45[0][0]                  
__________________________________________________________________________________________________
re_lu_42 (ReLU)                 (None, 8, 8, 512)    0           batch_normalization_42[0][0]     
__________________________________________________________________________________________________
conv2d_46 (Conv2D)              (None, 8, 8, 512)    2359808     re_lu_42[0][0]                   
__________________________________________________________________________________________________
batch_normalization_43 (BatchNo (None, 8, 8, 512)    2048        conv2d_46[0][0]                  
__________________________________________________________________________________________________
add_21 (Add)                    (None, 8, 8, 512)    0           batch_normalization_43[0][0]     
                                                                 re_lu_41[0][0]                   
__________________________________________________________________________________________________
re_lu_43 (ReLU)                 (None, 8, 8, 512)    0           add_21[0][0]                     
__________________________________________________________________________________________________
conv2d_47 (Conv2D)              (None, 8, 8, 512)    2359808     re_lu_43[0][0]                   
__________________________________________________________________________________________________
batch_normalization_44 (BatchNo (None, 8, 8, 512)    2048        conv2d_47[0][0]                  
__________________________________________________________________________________________________
re_lu_44 (ReLU)                 (None, 8, 8, 512)    0           batch_normalization_44[0][0]     
__________________________________________________________________________________________________
conv2d_48 (Conv2D)              (None, 8, 8, 512)    2359808     re_lu_44[0][0]                   
__________________________________________________________________________________________________
batch_normalization_45 (BatchNo (None, 8, 8, 512)    2048        conv2d_48[0][0]                  
__________________________________________________________________________________________________
add_22 (Add)                    (None, 8, 8, 512)    0           batch_normalization_45[0][0]     
                                                                 re_lu_43[0][0]                   
__________________________________________________________________________________________________
re_lu_45 (ReLU)                 (None, 8, 8, 512)    0           add_22[0][0]                     
__________________________________________________________________________________________________
conv2d_49 (Conv2D)              (None, 8, 8, 512)    2359808     re_lu_45[0][0]                   
__________________________________________________________________________________________________
batch_normalization_46 (BatchNo (None, 8, 8, 512)    2048        conv2d_49[0][0]                  
__________________________________________________________________________________________________
re_lu_46 (ReLU)                 (None, 8, 8, 512)    0           batch_normalization_46[0][0]     
__________________________________________________________________________________________________
conv2d_50 (Conv2D)              (None, 8, 8, 512)    2359808     re_lu_46[0][0]                   
__________________________________________________________________________________________________
batch_normalization_47 (BatchNo (None, 8, 8, 512)    2048        conv2d_50[0][0]                  
__________________________________________________________________________________________________
re_lu_47 (ReLU)                 (None, 8, 8, 512)    0           batch_normalization_47[0][0]     
__________________________________________________________________________________________________
conv2d_51 (Conv2D)              (None, 8, 8, 512)    2359808     re_lu_47[0][0]                   
__________________________________________________________________________________________________
batch_normalization_48 (BatchNo (None, 8, 8, 512)    2048        conv2d_51[0][0]                  
__________________________________________________________________________________________________
re_lu_48 (ReLU)                 (None, 8, 8, 512)    0           batch_normalization_48[0][0]     
__________________________________________________________________________________________________
concatenate_1 (Concatenate)     (None, 8, 8, 1024)   0           re_lu_45[0][0]                   
                                                                 re_lu_48[0][0]                   
__________________________________________________________________________________________________
conv2d_53 (Conv2D)              (None, 8, 8, 512)    4719104     concatenate_1[0][0]              
__________________________________________________________________________________________________
batch_normalization_49 (BatchNo (None, 8, 8, 512)    2048        conv2d_53[0][0]                  
__________________________________________________________________________________________________
re_lu_49 (ReLU)                 (None, 8, 8, 512)    0           batch_normalization_49[0][0]     
__________________________________________________________________________________________________
conv2d_54 (Conv2D)              (None, 8, 8, 512)    2359808     re_lu_49[0][0]                   
__________________________________________________________________________________________________
batch_normalization_50 (BatchNo (None, 8, 8, 512)    2048        conv2d_54[0][0]                  
__________________________________________________________________________________________________
re_lu_50 (ReLU)                 (None, 8, 8, 512)    0           batch_normalization_50[0][0]     
__________________________________________________________________________________________________
conv2d_55 (Conv2D)              (None, 8, 8, 512)    2359808     re_lu_50[0][0]                   
__________________________________________________________________________________________________
batch_normalization_51 (BatchNo (None, 8, 8, 512)    2048        conv2d_55[0][0]                  
__________________________________________________________________________________________________
re_lu_51 (ReLU)                 (None, 8, 8, 512)    0           batch_normalization_51[0][0]     
__________________________________________________________________________________________________
up_sampling2d_3 (UpSampling2D)  (None, 16, 16, 512)  0           re_lu_51[0][0]                   
__________________________________________________________________________________________________
concatenate_2 (Concatenate)     (None, 16, 16, 1024) 0           re_lu_39[0][0]                   
                                                                 up_sampling2d_3[0][0]            
__________________________________________________________________________________________________
conv2d_57 (Conv2D)              (None, 16, 16, 512)  4719104     concatenate_2[0][0]              
__________________________________________________________________________________________________
batch_normalization_52 (BatchNo (None, 16, 16, 512)  2048        conv2d_57[0][0]                  
__________________________________________________________________________________________________
re_lu_52 (ReLU)                 (None, 16, 16, 512)  0           batch_normalization_52[0][0]     
__________________________________________________________________________________________________
conv2d_58 (Conv2D)              (None, 16, 16, 512)  2359808     re_lu_52[0][0]                   
__________________________________________________________________________________________________
batch_normalization_53 (BatchNo (None, 16, 16, 512)  2048        conv2d_58[0][0]                  
__________________________________________________________________________________________________
re_lu_53 (ReLU)                 (None, 16, 16, 512)  0           batch_normalization_53[0][0]     
__________________________________________________________________________________________________
conv2d_59 (Conv2D)              (None, 16, 16, 512)  2359808     re_lu_53[0][0]                   
__________________________________________________________________________________________________
batch_normalization_54 (BatchNo (None, 16, 16, 512)  2048        conv2d_59[0][0]                  
__________________________________________________________________________________________________
re_lu_54 (ReLU)                 (None, 16, 16, 512)  0           batch_normalization_54[0][0]     
__________________________________________________________________________________________________
up_sampling2d_5 (UpSampling2D)  (None, 32, 32, 512)  0           re_lu_54[0][0]                   
__________________________________________________________________________________________________
concatenate_3 (Concatenate)     (None, 32, 32, 1024) 0           re_lu_33[0][0]                   
                                                                 up_sampling2d_5[0][0]            
__________________________________________________________________________________________________
conv2d_61 (Conv2D)              (None, 32, 32, 512)  4719104     concatenate_3[0][0]              
__________________________________________________________________________________________________
batch_normalization_55 (BatchNo (None, 32, 32, 512)  2048        conv2d_61[0][0]                  
__________________________________________________________________________________________________
re_lu_55 (ReLU)                 (None, 32, 32, 512)  0           batch_normalization_55[0][0]     
__________________________________________________________________________________________________
conv2d_62 (Conv2D)              (None, 32, 32, 512)  2359808     re_lu_55[0][0]                   
__________________________________________________________________________________________________
batch_normalization_56 (BatchNo (None, 32, 32, 512)  2048        conv2d_62[0][0]                  
__________________________________________________________________________________________________
re_lu_56 (ReLU)                 (None, 32, 32, 512)  0           batch_normalization_56[0][0]     
__________________________________________________________________________________________________
conv2d_63 (Conv2D)              (None, 32, 32, 512)  2359808     re_lu_56[0][0]                   
__________________________________________________________________________________________________
batch_normalization_57 (BatchNo (None, 32, 32, 512)  2048        conv2d_63[0][0]                  
__________________________________________________________________________________________________
re_lu_57 (ReLU)                 (None, 32, 32, 512)  0           batch_normalization_57[0][0]     
__________________________________________________________________________________________________
up_sampling2d_7 (UpSampling2D)  (None, 64, 64, 512)  0           re_lu_57[0][0]                   
__________________________________________________________________________________________________
concatenate_4 (Concatenate)     (None, 64, 64, 768)  0           re_lu_27[0][0]                   
                                                                 up_sampling2d_7[0][0]            
__________________________________________________________________________________________________
conv2d_65 (Conv2D)              (None, 64, 64, 256)  1769728     concatenate_4[0][0]              
__________________________________________________________________________________________________
batch_normalization_58 (BatchNo (None, 64, 64, 256)  1024        conv2d_65[0][0]                  
__________________________________________________________________________________________________
re_lu_58 (ReLU)                 (None, 64, 64, 256)  0           batch_normalization_58[0][0]     
__________________________________________________________________________________________________
conv2d_66 (Conv2D)              (None, 64, 64, 256)  590080      re_lu_58[0][0]                   
__________________________________________________________________________________________________
batch_normalization_59 (BatchNo (None, 64, 64, 256)  1024        conv2d_66[0][0]                  
__________________________________________________________________________________________________
re_lu_59 (ReLU)                 (None, 64, 64, 256)  0           batch_normalization_59[0][0]     
__________________________________________________________________________________________________
conv2d_67 (Conv2D)              (None, 64, 64, 256)  590080      re_lu_59[0][0]                   
__________________________________________________________________________________________________
batch_normalization_60 (BatchNo (None, 64, 64, 256)  1024        conv2d_67[0][0]                  
__________________________________________________________________________________________________
re_lu_60 (ReLU)                 (None, 64, 64, 256)  0           batch_normalization_60[0][0]     
__________________________________________________________________________________________________
up_sampling2d_9 (UpSampling2D)  (None, 128, 128, 256 0           re_lu_60[0][0]                   
__________________________________________________________________________________________________
concatenate_5 (Concatenate)     (None, 128, 128, 384 0           re_lu_15[0][0]                   
…
__________________________________________________________________________________________________
up_sampling2d_11 (UpSampling2D) (None, 256, 256, 128 0           re_lu_63[0][0]                   
__________________________________________________________________________________________________
concatenate_6 (Concatenate)     (None, 256, 256, 192 0           re_lu_7[0][0]                    
                                                                 up_sampling2d_11[0][0]           
__________________________________________________________________________________________________
conv2d_73 (Conv2D)              (None, 256, 256, 64) 110656      concatenate_6[0][0]              
__________________________________________________________________________________________________
batch_normalization_64 (BatchNo (None, 256, 256, 64) 256         conv2d_73[0][0]                  
__________________________________________________________________________________________________
re_lu_64 (ReLU)                 (None, 256, 256, 64) 0           batch_normalization_64[0][0]     
__________________________________________________________________________________________________
conv2d_74 (Conv2D)              (None, 256, 256, 64) 36928       re_lu_64[0][0]                   
__________________________________________________________________________________________________
batch_normalization_65 (BatchNo (None, 256, 256, 64) 256         conv2d_74[0][0]                  
__________________________________________________________________________________________________
re_lu_65 (ReLU)                 (None, 256, 256, 64) 0           batch_normalization_65[0][0]     
__________________________________________________________________________________________________
conv2d_75 (Conv2D)              (None, 256, 256, 64) 36928       re_lu_65[0][0]                   
__________________________________________________________________________________________________
batch_normalization_66 (BatchNo (None, 256, 256, 64) 256         conv2d_75[0][0]                  
__________________________________________________________________________________________________
re_lu_66 (ReLU)                 (None, 256, 256, 64) 0           batch_normalization_66[0][0]     
__________________________________________________________________________________________________
conv2d_76 (Conv2D)              (None, 256, 256, 1)  577         re_lu_66[0][0]                   
__________________________________________________________________________________________________
conv2d_77 (Conv2D)              (None, 256, 256, 64) 640         conv2d_76[0][0]                  
__________________________________________________________________________________________________
conv2d_78 (Conv2D)              (None, 256, 256, 64) 36928       conv2d_77[0][0]                  
__________________________________________________________________________________________________
batch_normalization_67 (BatchNo (None, 256, 256, 64) 256         conv2d_78[0][0]                  
__________________________________________________________________________________________________
re_lu_67 (ReLU)                 (None, 256, 256, 64) 0           batch_normalization_67[0][0]     
__________________________________________________________________________________________________
max_pooling2d_3 (MaxPooling2D)  (None, 128, 128, 64) 0           re_lu_67[0][0]                   
__________________________________________________________________________________________________
conv2d_79 (Conv2D)              (None, 128, 128, 64) 36928       max_pooling2d_3[0][0]            
__________________________________________________________________________________________________
batch_normalization_68 (BatchNo (None, 128, 128, 64) 256         conv2d_79[0][0]                  
__________________________________________________________________________________________________
re_lu_68 (ReLU)                 (None, 128, 128, 64) 0           batch_normalization_68[0][0]     
__________________________________________________________________________________________________
max_pooling2d_4 (MaxPooling2D)  (None, 64, 64, 64)   0           re_lu_68[0][0]                   
__________________________________________________________________________________________________
conv2d_80 (Conv2D)              (None, 64, 64, 64)   36928       max_pooling2d_4[0][0]            
__________________________________________________________________________________________________
batch_normalization_69 (BatchNo (None, 64, 64, 64)   256         conv2d_80[0][0]                  
__________________________________________________________________________________________________
re_lu_69 (ReLU)                 (None, 64, 64, 64)   0           batch_normalization_69[0][0]     
__________________________________________________________________________________________________
max_pooling2d_5 (MaxPooling2D)  (None, 32, 32, 64)   0           re_lu_69[0][0]                   
__________________________________________________________________________________________________
conv2d_81 (Conv2D)              (None, 32, 32, 64)   36928       max_pooling2d_5[0][0]            
__________________________________________________________________________________________________
batch_normalization_70 (BatchNo (None, 32, 32, 64)   256         conv2d_81[0][0]                  
__________________________________________________________________________________________________
re_lu_70 (ReLU)                 (None, 32, 32, 64)   0           batch_normalization_70[0][0]     
__________________________________________________________________________________________________
max_pooling2d_6 (MaxPooling2D)  (None, 16, 16, 64)   0           re_lu_70[0][0]                   
__________________________________________________________________________________________________
conv2d_82 (Conv2D)              (None, 16, 16, 64)   36928       max_pooling2d_6[0][0]            
__________________________________________________________________________________________________
batch_normalization_71 (BatchNo (None, 16, 16, 64)   256         conv2d_82[0][0]                  
__________________________________________________________________________________________________
re_lu_71 (ReLU)                 (None, 16, 16, 64)   0           batch_normalization_71[0][0]     
__________________________________________________________________________________________________
up_sampling2d_12 (UpSampling2D) (None, 32, 32, 64)   0           re_lu_71[0][0]                   
__________________________________________________________________________________________________
concatenate_7 (Concatenate)     (None, 32, 32, 128)  0           up_sampling2d_12[0][0]           
                                                                 re_lu_70[0][0]                   
__________________________________________________________________________________________________
conv2d_83 (Conv2D)              (None, 32, 32, 64)   73792       concatenate_7[0][0]              
__________________________________________________________________________________________________
batch_normalization_72 (BatchNo (None, 32, 32, 64)   256         conv2d_83[0][0]                  
__________________________________________________________________________________________________
re_lu_72 (ReLU)                 (None, 32, 32, 64)   0           batch_normalization_72[0][0]     
__________________________________________________________________________________________________
up_sampling2d_13 (UpSampling2D) (None, 64, 64, 64)   0           re_lu_72[0][0]                   
__________________________________________________________________________________________________
concatenate_8 (Concatenate)     (None, 64, 64, 128)  0           up_sampling2d_13[0][0]           
                                                                 re_lu_69[0][0]                   
__________________________________________________________________________________________________
conv2d_84 (Conv2D)              (None, 64, 64, 64)   73792       concatenate_8[0][0]              
__________________________________________________________________________________________________
batch_normalization_73 (BatchNo (None, 64, 64, 64)   256         conv2d_84[0][0]                  
__________________________________________________________________________________________________
re_lu_73 (ReLU)                 (None, 64, 64, 64)   0           batch_normalization_73[0][0]     
__________________________________________________________________________________________________
up_sampling2d_14 (UpSampling2D) (None, 128, 128, 64) 0           re_lu_73[0][0]                   
__________________________________________________________________________________________________
concatenate_9 (Concatenate)     (None, 128, 128, 128 0           up_sampling2d_14[0][0]           
                                                                 re_lu_68[0][0]                   
__________________________________________________________________________________________________
conv2d_85 (Conv2D)              (None, 128, 128, 64) 73792       concatenate_9[0][0]              
__________________________________________________________________________________________________
batch_normalization_74 (BatchNo (None, 128, 128, 64) 256         conv2d_85[0][0]                  
__________________________________________________________________________________________________
re_lu_74 (ReLU)                 (None, 128, 128, 64) 0           batch_normalization_74[0][0]     
__________________________________________________________________________________________________
up_sampling2d_15 (UpSampling2D) (None, 256, 256, 64) 0           re_lu_74[0][0]                   
__________________________________________________________________________________________________
concatenate_10 (Concatenate)    (None, 256, 256, 128 0           up_sampling2d_15[0][0]           
                                                                 re_lu_67[0][0]                   
__________________________________________________________________________________________________
conv2d_86 (Conv2D)              (None, 256, 256, 64) 73792       concatenate_10[0][0]             
__________________________________________________________________________________________________
batch_normalization_75 (BatchNo (None, 256, 256, 64) 256         conv2d_86[0][0]                  
__________________________________________________________________________________________________
re_lu_75 (ReLU)                 (None, 256, 256, 64) 0           batch_normalization_75[0][0]     
__________________________________________________________________________________________________
conv2d_87 (Conv2D)              (None, 256, 256, 1)  577         re_lu_75[0][0]                   
__________________________________________________________________________________________________
conv2d_72 (Conv2D)              (None, 128, 128, 1)  1153        re_lu_63[0][0]                   
__________________________________________________________________________________________________
conv2d_68 (Conv2D)              (None, 64, 64, 1)    2305        re_lu_60[0][0]                   
__________________________________________________________________________________________________
conv2d_64 (Conv2D)              (None, 32, 32, 1)    4609        re_lu_57[0][0]                   
__________________________________________________________________________________________________
conv2d_60 (Conv2D)              (None, 16, 16, 1)    4609        re_lu_54[0][0]                   
__________________________________________________________________________________________________
conv2d_56 (Conv2D)              (None, 8, 8, 1)      4609        re_lu_51[0][0]                   
__________________________________________________________________________________________________
conv2d_52 (Conv2D)              (None, 8, 8, 1)      4609        re_lu_48[0][0]                   
__________________________________________________________________________________________________
add_23 (Add)                    (None, 256, 256, 1)  0           conv2d_76[0][0]                  
                                                                 conv2d_87[0][0]                  
__________________________________________________________________________________________________
up_sampling2d_10 (UpSampling2D) (None, 256, 256, 1)  0           conv2d_72[0][0]                  
__________________________________________________________________________________________________
up_sampling2d_8 (UpSampling2D)  (None, 256, 256, 1)  0           conv2d_68[0][0]                  
__________________________________________________________________________________________________
up_sampling2d_6 (UpSampling2D)  (None, 256, 256, 1)  0           conv2d_64[0][0]                  
__________________________________________________________________________________________________
up_sampling2d_4 (UpSampling2D)  (None, 256, 256, 1)  0           conv2d_60[0][0]                  
__________________________________________________________________________________________________
up_sampling2d_2 (UpSampling2D)  (None, 256, 256, 1)  0           conv2d_56[0][0]                  
__________________________________________________________________________________________________
up_sampling2d_1 (UpSampling2D)  (None, 256, 256, 1)  0           conv2d_52[0][0]                  
__________________________________________________________________________________________________
concatenate_11 (Concatenate)    (None, 256, 256, 8)  0           add_23[0][0]                     
                                                                 conv2d_76[0][0]                  
                                                                 up_sampling2d_10[0][0]           
                                                                 up_sampling2d_8[0][0]            
                                                                 up_sampling2d_6[0][0]            
                                                                 up_sampling2d_4[0][0]            
                                                                 up_sampling2d_2[0][0]            
                                                                 up_sampling2d_1[0][0]            
__________________________________________________________________________________________________
conv2d_88 (Conv2D)              (None, 256, 256, 8)  72          concatenate_11[0][0]             
==================================================================================================
Total params: 90,820,944
Trainable params: 90,777,296
Non-trainable params: 43,648
__________________________________________________________________________________________________
